baseline/gnn/output/dgl_model-057137.pth (torch, 168324 bytes, 6 tensors)

layers.0.bias f4 [64]
000000 a9 e6 a5 ba 8a 0b 34 b0 e6 58 7b bd 1a 11 12 3e
       -0.0012657243 -6.5500017e-10 -0.061364077 0.14264336
000010 19 56 54 3b a0 1b 0f 3e 0d a9 95 b2 1c e5 36 3d
       0.003239995 0.13975382 -1.7422758e-08 0.04465209
000020 d4 93 e9 b8 90 8c 94 ba 6f fb 0b b5 3b 2f c0 3d
       -0.00011137841 -0.0011333395 -5.214742e-07 0.093840085
000030 8c fc 1d bb 12 5a 62 3c 04 c6 72 3e 06 30 6d b8
       -0.0024106828 0.01381542 0.2370835 -5.654993e-05
000040 6a 59 f0 12 c2 56 2b 3d b7 da 47 bb 69 71 f8 3d
       1.5168172e-27 0.041830786 -0.0030495354 0.12131006
000050 f9 9f c3 3c 89 fa 35 3d a3 68 de 3b 3b f9 0f 3e
       0.023879992 0.044428382 0.006787376 0.14059918
000060 ed da a5 bc f1 09 6a b9 b3 b2 f1 3b 3d 9d 68 b2
       -0.020245994 -0.00022319682 0.007376039 -1.3539929e-08
000070 a2 39 b2 bd a4 9d 8a 3c 64 53 ee 3d 2a 55 8c 3d
       -0.08702399 0.016920872 0.11636999 0.06852181
000080 51 85 0b b5 d0 c5 17 3d c6 bd 96 2b 11 b5 6b 87
       -5.1975536e-07 0.037053883 1.0710814e-12 -1.7732646e-34
000090 13 d4 08 3e 8c 0f 99 3c 74 48 ce 9f 0f 13 12 94
       0.1336215 0.018684171 -8.736426e-20 -7.374875e-27
0000a0 44 38 b8 3b eb 36 73 3d 11 51 c6 bb ab 7b 59 bd
       0.0056219418 0.059378546 -0.0060521443 -0.053096455
0000b0 2f d1 8b b4 f3 5c 91 3e fb 8f ef 3d ee c0 b7 3d
       -2.604297e-07 0.28391227 0.11697384 0.08972345
0000c0 9d 63 d1 bc 5a f9 ad bd 0c f4 f2 b6 3a 0e 6a bd
       -0.025560195 -0.08494826 -7.240573e-06 -0.057142474
0000d0 8b 93 45 3d 11 c6 05 bd 93 2d c0 b9 1b 58 12 3d
       0.04823641 -0.032659594 -0.0003665505 0.035728555
0000e0 0c 36 01 3b 53 1e a8 bb dc f8 f1 bb 22 1f 14 3e
       0.0019716052 -0.005130568 -0.0073844027 0.14465001
0000f0 07 a0 e5 ba e8 a0 57 3b 81 11 87 bd 48 75 92 3d
       -0.0017519005 0.0032902304 -0.065951355 0.07151276

layers.0.fc_self.weight f4 [64, 300]
000000 38 75 32 ba 9f 2a 39 3a ec ce 82 b9 a0 b8 80 3a
       -0.0006807628 0.0007063541 -0.000249497 0.0009820648
000010 b8 42 51 ba ae 63 40 3a 83 e3 4f 3a dc 46 39 b8
       -0.0007982659 0.0007339072 0.0007930325 -4.417343e-05
000020 f5 f6 bf 3a ad 3d bc 3a 4f b9 01 b8 84 8a 0b ba
       0.0014645742 0.0014361643 -3.092858e-05 -0.00053230696
000030 4b 8a a4 3a 71 fc 51 ba ed f6 31 ba d4 a2 12 3a
       0.0012553422 -0.0008010334 -0.0006788809 0.0005593721
000040 de 8e 6c b9 a5 2c 26 3a 08 8a 92 ba 00 bc dc b9
       -0.00022559936 0.000633905 -0.0011180053 -0.0004210174
000050 10 bb 0f ba 22 c4 d0 b8 f7 66 99 ba 2e 19 2b b8
       -0.00054828916 -9.9547455e-05 -0.001170366 -4.0793027e-05
000060 06 01 4f ba 88 28 6a 3a 48 0a ae ba 7c af 41 3a
       -0.0007896576 0.0008932431 -0.001327821 0.0007388515
000070 df 2b 5b 3a 91 ac 9a 3a 43 e8 a0 ba 0e 28 0f ba
       0.00083607243 0.0011800696 -0.0012276251 -0.00054609857
000080 c7 ea 79 ba a0 dd de 3a 69 dd 51 3a 61 6f 7e b8
       -0.0009533581 0.0017003305 0.000800571 -6.066205e-05
000090 5f 89 8f ba 14 e9 62 b8 03 45 06 3a f1 dd 14 ba
       -0.0010950974 -5.409967e-05 0.0005121978 -0.0005678824
0000a0 78 a3 68 ba 44 03 1d ba bf d0 21 ba e8 99 04 3a
       -0.00088744564 -0.00059895613 -0.0006172768 0.0005058334
0000b0 ed a8 8e ba 75 78 aa 3a 85 be 94 ba 81 18 a4 3a
       -0.0010884084 0.001300587 -0.0011348283 0.001251951
0000c0 ce 94 aa 39 e6 e7 e4 b9 6b c7 bf 3a c1 de 4a 3a
       0.00032535795 -0.00043660327 0.0014631575 0.00077388814
0000d0 15 0c a1 3a 7b 17 80 3a 82 e6 14 3a 0b fd 93 3a
       0.0012286926 0.0009772623 0.00056801003 0.0011290623
0000e0 2c 6b 5f b9 77 08 87 3a c1 40 95 b9 90 e0 3e 3a
       -0.00021306862 0.0010302205 -0.0002846774 0.0007281387
0000f0 20 4b 05 ba f4 5f ab ba f0 b9 89 ba 0d 96 66 3a
       -0.0005084742 -0.0013074861 -0.0010507684 0.0008796163
000100 26 6d 93 39 86 ae 6f ba 81 bf 09 3b c2 ed a3 38
       0.00028119347 -0.00091431325 0.0021018686 7.8167315e-05
000110 4a 27 8a 3a 90 27 a0 b7 98 6d c2 39 52 b0 60 ba
       0.0010540274 -1.9091909e-05 0.00037084217 -0.00085711956
000120 96 09 e2 39 9c 0c 53 39 b7 6d 43 ba e4 f1 4c 3a
       0.0004311322 0.00020127225 -0.00074550085 0.0007818027
000130 d3 8d 0b ba ca 64 7b 3a c8 0c b7 b9 b1 62 b0 3a
       -0.00053235627 0.0009589909 -0.00034914003 0.0013457147
000140 ed 7d c2 39 3d d6 b1 3a 54 66 6e ba b9 73 21 ba
       0.00037096385 0.0013567876 -0.00090942276 -0.00061589066
000150 dc a2 8b 38 9a 94 75 b9 6c 5c b6 b9 3d 12 9a 3a
       6.6583714e-05 -0.00023420379 -0.00034782605 0.0011754703
000160 c6 26 9a 3a d5 53 49 3b cb 86 79 3a 7a 97 0b 39
       0.0011760823 0.0030720134 0.0009518682 0.00013312502
000170 80 dc 70 39 a0 e6 d7 b8 ae b5 a6 3a db 0d 4f ba
       0.00022970326 -0.00010294956 0.001271894 -0.0007898488
000180 9a cb 72 3a c4 7e 9e b9 be 38 a2 39 60 f6 85 38
       0.00092619064 -0.00030230556 0.00030941324 6.387825e-05
000190 8c 72 29 3a dd 5c 95 3a a0 f7 a2 b9 b3 20 9e 39
       0.0006463907 0.0011395473 -0.00031083543 0.0003016047
0001a0 77 5d 4d 3a 75 4b 91 39 d9 0c 27 ba 6c 3e f1 39
       0.0007834057 0.00027712775 -0.0006372459 0.0004601361
0001b0 2a 3a a9 3a 9d 9c 4f 3a 45 dd 76 ba f4 2d 3a ba
       0.0012911011 0.00079197605 -0.0009417127 -0.00071021845
0001c0 58 ea a9 36 1d f0 d8 39 9f 2a 9e 38 3b 95 87 ba
       5.0638737e-06 0.0004137763 7.541966e-05 -0.0010344157
0001d0 56 cb 3d 3a 3f a9 1b ba bc 4a bc b9 a4 30 11 3a
       0.0007240077 -0.00059380004 -0.00035913836 0.0005538559
0001e0 5a ba 39 3a 46 81 8a 3a 0b e0 e7 b8 c5 25 eb b9
       0.00070849585 0.0010567091 -0.000110566696 -0.00044850833
0001f0 ac 0d a2 ba 30 2c 03 3a f7 02 90 3a 2e 62 72 ba
       -0.0012363694 0.0005003838 0.0010987212 -0.00092461973
000200 09 a9 92 3a 38 b5 37 ba e8 99 29 ba 2a 9a 36 3a
       0.0011189292 -0.00070078997 -0.0006469772 0.0006965721
000210 e2 00 90 3a a1 68 fa 38 3f 67 35 3a 5b f2 87 3a
       0.0010986591 0.000119404176 0.0006919987 0.001037191
000220 05 48 24 39 87 c0 aa 39 84 ca 8b ba 51 15 1f 3a
       0.00015667088 0.0003256837 -0.0010665213 0.0006068545
000230 08 d4 7d ba 99 42 a2 ba d3 2c 4f 3a 10 98 b0 3a
       -0.0009682779 -0.0012379467 0.00079031027 0.0013473053
000240 ec 25 82 b9 dd fb 62 3a fd 34 42 ba 21 07 9b ba
       -0.00024823786 0.00086587464 -0.00074084086 -0.0011827686
000250 a5 1d 07 3a 3d 7b a0 ba 47 a4 96 3a 05 30 4a ba
       0.00051542587 -0.0012243759 0.001149305 -0.0007712844
000260 4d d5 88 3a 80 d5 73 3a 78 c6 0a ba 6f 0b 34 39
       0.0010439545 0.00093015283 -0.00052938564 0.00017170397
000270 8e c6 ae 39 0c 10 d2 3a b2 1c d5 ba d4 62 83 3a
       0.000333358 0.0016026511 -0.0016259162 0.001002396
000280 bd ff 81 3a ea 26 67 b8 4c 9b 2a 3a cd 73 9b ba
       0.0009918135 -5.5110933e-05 0.00065081264 -0.0011860073
000290 d8 75 2b ba 1f f8 25 ba d7 aa 2d 3a 54 eb d7 b9
       -0.00065406924 -0.00063312234 0.00066248834 -0.0004118333
0002a0 27 38 1b 3a a7 7a 9c ba b1 7b ff 39 33 b0 90 3a
       0.0005921148 -0.0011938409 0.00048729547 0.001103884
0002b0 c5 9b 8f ba 27 50 64 3a 5e fb 03 ba f1 4a 3e 3a
       -0.0010956457 0.00087094534 -0.000503471 0.0007259092
0002c0 6e ca 08 ba f4 a6 d3 b9 67 b0 28 3a a5 c7 59 b8
       -0.00052181527 -0.00040369446 0.00064349774 -5.1922765e-05
0002d0 e0 0f ce b9 7c 2c 75 39 2c 4d 6a ba 00 4b a5 ba
       -0.0003930321 0.00023381592 -0.0008937891 -0.0012610853
0002e0 7f 9e e4 ba 35 5c 8a ba ec a8 32 3a 98 e2 ad 3a
       -0.0017442255 -0.0010556044 0.00068153325 0.0013266383
0002f0 e6 7d 0b b9 80 d3 09 38 14 0b 3d ba 93 5e 9c 39
       -0.00013302974 3.286032e-05 -0.00072114286 0.00029825102
000300 1d 6d 93 3a 38 9e 94 3a ed 8b 04 39 82 ff 1f 3a
       0.0011247728 0.0011338657 0.00012640627 0.0006103442
000310 63 33 62 ba c5 88 05 ba 68 fa a9 ba 88 c0 87 3a
       -0.0008628873 -0.00050939276 -0.0012968304 0.0010357061
000320 0c 1f 7f b8 da ae 3c ba 94 b9 24 ba 2f 0c 26 3a
       -6.0825652e-05 -0.0007197686 -0.0006283757 0.0006334213
000330 81 e8 d4 3a 49 19 7b 3a 2f 2c 4c b9 9b 68 82 3a
       0.0016243608 0.0009578658 -0.00019471416 0.0009949388
000340 16 24 ed b9 a3 f1 4e ba d8 52 30 3a bd 3c a4 ba
       -0.0004523105 -0.0007894283 0.0006726212 -0.0012530308
000350 13 98 71 3a 6a c8 1e ba 16 ab 6b 3a a0 3a a0 3a
       0.0009216081 -0.00060570857 0.00089900324 0.0012224503
000360 70 76 30 ba 22 14 90 3a f6 da 71 ba 42 b2 e2 39
       -0.0006731516 0.0010992328 -0.0009226048 0.00043238892
000370 d4 02 36 b6 fb 4d 14 3a dd 78 0f ba 33 d7 b1 b9
       -2.712176e-06 0.0005657372 -0.0005473027 -0.00033920407
000380 7b ff 74 3a b3 fa cf 3a c5 23 8e 3a 96 cb 3b 3a
       0.0009345931 0.0015867561 0.00108444 0.00071638206
000390 67 c6 29 3a 5a 71 87 3a 5c 9f 8b ba 09 ea 16 3a
       0.00064764026 0.0010333464 -0.0010652351 0.000575692
0003a0 23 3b 26 3a 6a 77 83 ba d9 28 8b b8 11 7a 27 ba
       0.00063412095 -0.0010030095 -6.635645e-05 -0.0006388734
0003b0 3a 1a 65 3a 6a be c0 b9 89 ca 8e 3a 3e ec 90 3a
       0.0008739565 -0.00036762963 0.00108941 0.0011056734
0003c0 5c 43 6f 39 86 52 84 3a 07 7e 0a 3a 54 20 fc 39
       0.0002281791 0.0010095395 0.0005283062 0.00048089272
0003d0 b5 e1 81 3a 37 e3 51 ba fe c3 07 ba 30 cf 38 ba
       0.0009909185 -0.0008006575 -0.00051790464 -0.00070499163
0003e0 cb 42 d0 b9 90 88 87 3a 23 0a ee 3a 26 e9 9a 39
       -0.00039722616 0.0010340381 0.001816098 0.00029546878
0003f0 36 82 9b 39 a0 74 c4 b9 96 e4 3c 3a 6d 30 3c 3a
       0.00029660919 -0.00037470926 0.0007205693 0.0007178847

layers.0.fc_neigh.weight f4 [64, 300]
000000 0a 6e 85 ba 9c fa 54 3a 1f 69 91 ba 73 ec 98 3a
       -0.0010179889 0.0008124502 -0.0011093951 0.0011667147
000010 b5 61 97 b8 1e 49 8c 3a db 86 09 3a 06 8e 43 ba
       -7.2184404e-05 0.0010702943 0.000524623 -0.0007459823
000020 4f f5 1d 3a 2e 12 d8 3a f9 71 7f ba d0 f6 0a ba
       0.00060256285 0.001648491 -0.0009744461 -0.000530106
000030 b5 77 60 3a 45 21 0a ba 6c 4e 72 ba 14 38 28 3a
       0.00085627596 -0.000526924 -0.0009243253 0.00064170477
000040 00 68 13 b9 a3 2a 30 3a 39 2d 30 ba 6f 97 a9 b9
       -0.00014057755 0.00067202206 -0.0006720606 -0.0003234702
000050 20 da 38 ba d5 f4 21 3a 04 58 5b ba 2e 25 16 b9
       -0.0007051546 0.00061781454 -0.00083673024 -0.00014318965
000060 0d 4d 84 ba 5e c7 4e 3a ac 2c 8e ba c9 c3 98 3a
       -0.0010093764 0.00078879844 -0.0010847053 0.0011655028
000070 ce 7a 9e 3a 63 57 a6 3a 1f a5 3c ba cc 4d 5a b9
       0.0012091042 0.0012690838 -0.0007196236 -0.00020819082
000080 80 c7 94 ba 93 f9 a8 3a c1 3e 8c 3a 1e 9f c1 39
       -0.001135096 0.0012891762 0.0010699854 0.0003693038
000090 40 19 1c ba fe e5 20 3a 5a aa 9d 3a 9e c6 6e ba
       -0.000595469 0.0006137787 0.0012028918 -0.0009108576
0000a0 42 7c 31 ba 48 6b 3b ba e6 b6 a2 ba 40 dd 43 b9
       -0.000677053 -0.000714947 -0.0012414127 -0.00018679071
0000b0 98 e3 07 ba 6c 84 81 3a 46 15 f8 b9 81 fa b2 3a
       -0.00051837554 0.0009881384 -0.00047318096 0.0013654978
0000c0 41 1a 9f b9 a9 ba 0e ba 69 c7 d0 3a 4b cf b0 b8
       -0.00030346404 -0.00054446846 0.001592857 -8.430945e-05
0000d0 b5 2f 6e 3a e0 1c 8a 38 55 88 59 3a df 9c 76 3a
       0.00090860884 6.585731e-05 0.0008298208 0.0009407531
0000e0 5e 34 51 b9 f0 0f 22 3a 16 40 28 ba 19 f5 76 3a
       -0.00019951302 0.00061821844 -0.0006418241 0.00094206777
0000f0 4d 90 05 ba 94 ff 8e ba 68 e0 47 ba b6 a1 8b 3a
       -0.000509505 -0.0010909908 -0.00076246867 0.0010653052
000100 e6 46 02 3a c6 19 21 ba 60 38 7d 3a b1 75 04 3a
       0.0004969671 -0.0006145503 0.00096595846 0.0005052938
000110 9d 2b 82 3a 16 1d 9c b9 39 c7 54 39 77 9b 6c ba
       0.0009931211 -0.0002977631 0.00020292112 -0.00090258516
000120 84 25 4b 3a 3f 24 a9 39 4c 98 f9 b9 b0 1a 02 3a
       0.0007749426 0.00032261197 -0.0004760645 0.0004963083
000130 94 e8 c8 39 db 95 c8 3a 73 42 3a ba 68 25 58 3a
       0.00038320257 0.001530345 -0.00071052386 0.000824532
000140 26 3a 52 3a 06 a5 ba 3a 5e 80 c2 ba 08 e4 4b ba
       0.0008019529 0.0014239855 -0.0014839282 -0.0007777815
000150 d9 90 14 b9 4d e9 02 ba eb e8 7d 39 2e fa a8 3a
       -0.0001416834 -0.0004993871 0.00024214729 0.0012891942
000160 64 5c 89 3a ad 2e d6 3a 55 3b 1b 3a 74 93 99 b9
       0.0010479805 0.0016340815 0.0005921622 -0.00029292295
000170 b1 84 3f 39 8d 7a a4 39 bb c2 8d 3a 40 b0 9d ba
       0.00018264611 0.00031371825 0.001081548 -0.0012030676
000180 a3 d6 94 3a 4d e4 2c ba 80 44 c8 39 53 aa 29 ba
       0.0011355471 -0.0006595299 0.0003819801 -0.00064722187
000190 48 bb 1a 3a ef ae a4 3a e6 6e 8c ba d8 07 46 37
       0.0005902541 0.0012564341 -0.0010714203 1.1803546e-05
0001a0 6b 40 23 3a a3 39 41 3a 3f d4 82 39 3c 1f 98 3a
       0.00062275556 0.0007370954 0.00024953668 0.0011605988
0001b0 67 58 aa 3a eb ee 95 3a 0d 6a 79 ba 16 62 5d ba
       0.0012996317 0.0011439001 -0.0009514399 -0.0008445097
0001c0 c8 b2 9b b9 9b 02 69 3a 5c 44 e4 b8 b7 0a 53 ba
       -0.00029697106 0.0008888633 -0.0001088462 -0.0008050608
0001d0 4d b7 8d 3a de 98 be 38 d1 c2 a6 ba e5 0c 4f 3a
       0.0010812074 9.08838e-05 -0.0012722855 0.0007898345
0001e0 e5 2f 1c b9 b7 95 6c 3a 48 1d b5 b9 e5 38 85 b8
       -0.00014895161 0.0009024995 -0.00034544826 -6.352532e-05
0001f0 0c 29 c1 ba 66 e2 4b 3a 89 81 b8 3a 0d 07 84 ba
       -0.0014736964 0.00077775714 0.001407669 -0.0010072902
000200 85 b0 9a 3a 9d 06 28 ba e2 a7 91 b8 8a 8d 62 3a
       0.0011801874 -0.0006409677 -6.9454094e-05 0.0008642307
000210 09 a7 92 3a 08 6b 41 3a 55 b5 83 3a ee 14 6d 39
       0.0011188696 0.00073783146 0.0010048548 0.00022609878
000220 79 a2 9d b9 c3 0d 0c 3a 34 49 48 ba 6f 37 6e 3a
       -0.00030066425 0.0005342627 -0.00076403026 0.000908724
000230 2b 8f ad ba e0 9f 93 ba 99 17 6b 3a 85 45 80 3a
       -0.001324152 -0.0011262856 0.0008968055 0.0009786343
000240 c9 aa 13 39 83 60 70 3a 0e 42 74 ba d4 07 41 ba
       0.00014082635 0.0009169655 -0.0009317704 -0.0007363532
000250 7e 22 f0 b9 34 36 13 ba 48 1c a4 3a 14 13 ab ba
       -0.00045802066 -0.0005615682 0.0012520636 -0.001305195
000260 7a df cd 3a ca 49 32 39 4a cb 02 ba 2f 76 29 b9
       0.001570686 0.00017002891 -0.0004989399 -0.00016161123
000270 20 50 18 3a 50 a9 81 3a e3 7e 96 ba de 5c c5 3a
       0.00058102794 0.0009892378 -0.0011481907 0.0015057584
000280 60 e9 8c 3a de 31 0a 3a 40 e4 a4 39 58 4e 5d ba
       0.0010750704 0.0005271713 0.00031450577 -0.0008442155
000290 c8 48 48 ba 88 70 32 ba 50 78 42 3a ae 2a 40 39
       -0.000764024 -0.00068069296 0.00074184407 0.00018326446
0002a0 b3 d1 f6 39 42 61 11 ba 9a c7 19 3a 67 01 9b 3a
       0.00047077014 -0.00055458036 0.000586623 0.001182598
0002b0 d9 46 9a ba fe 61 3d 3a cf f3 47 ba a6 a3 13 38
       -0.0011770382 0.000722438 -0.0007627578 3.519994e-05
0002c0 32 76 a5 ba ab 0e 77 b9 c3 af 80 3a 15 d2 3a b9
       -0.0012623726 -0.0002356122 0.0009818006 -0.00017816604
0002d0 fa b1 f1 b9 36 99 6a 3a ff 15 28 ba 3d c8 ba ba
       -0.00046099705 0.0008949222 -0.0006411969 -0.001425035
0002e0 14 4f c6 ba d3 f9 72 ba e1 1a 34 3a 2c 69 5a 3a
       -0.0015129768 -0.0009268794 0.00068704603 0.0008331712
0002f0 1c 4e a2 b9 29 2f de b9 47 33 82 ba 47 32 09 3a
       -0.00030957244 -0.00042378277 -0.0009933495 0.0005233627
000300 18 7a de 39 8f a0 7f 3a 44 0f 43 b9 ea 3c 5c 3a
       0.00042434107 0.0009751403 -0.00018602336 0.0008401411
000310 6b 83 4e ba d3 87 1d ba 5f 94 64 b9 0d c7 80 3a
       -0.0007877859 -0.0006009314 -0.00021799047 0.0009824947
000320 ad 7e 1b b9 07 95 8c ba 64 05 79 ba 9f fd 17 3a
       -0.00014829142 -0.0010725566 -0.00094993995 0.00057979854
000330 d2 77 8a 3a dc 18 53 3a fd bd 05 ba 96 50 17 3a
       0.0010564274 0.00080527156 -0.0005101858 0.0005772201
000340 d7 3c 40 ba d0 30 3e ba 3e 91 1b 3a e9 61 49 ba
       -0.00073332846 -0.00072551984 0.00059344235 -0.0007682131
000350 57 b5 87 3a 6a 93 88 ba a8 d0 85 3a bc 41 24 3a
       0.0010353726 -0.0010419909 0.0010209279 0.00062658987
000360 db 7e 58 ba 04 5b ac 3a 6d ce 81 ba 6c db 39 3a
       -0.0008258649 0.0013149683 -0.0009903439 0.00070898863
000370 ed 0f d5 b9 2e 94 cd 39 60 f0 b8 b9 1d d2 b4 38
       -0.00040638392 0.0003921105 -0.00035274308 8.6222055e-05
000380 56 49 94 3a 4d 6e a8 3a 8a 1c 0f 3a b7 d1 c6 36
       0.001131336 0.0012850255 0.000545927 5.925274e-06
000390 20 d4 4b 3a 5c c6 8c 3a a3 4b 78 ba f0 a4 f9 39
       0.00077754445 0.0010740268 -0.000947172 0.0004761587
0003a0 bc 3f 48 3a 53 63 0a ba 75 96 04 38 b8 f6 88 ba
       0.00076388917 -0.00052790827 3.1611376e-05 -0.0010449504
0003b0 65 7a 5f 3a 27 23 8c b9 33 c3 ac 3a d6 e5 fb 39
       0.0008525013 -0.0002672907 0.0013180732 0.00048045692
0003c0 5c 93 e1 39 e6 a5 8f 3a 8a 7a 28 3a 13 cd 8e 3a
       0.00043025136 0.0010959476 0.0006426951 0.0010894857
0003d0 0a 7c 75 3a 20 6e 63 ba 56 59 fb b9 8b aa 36 ba
       0.00093644916 -0.00086757727 -0.0004794101 -0.0006968162
0003e0 05 4d 02 ba 28 bf 00 3a 02 73 a2 3a c6 58 f6 39
       -0.0004970583 0.0004911297 0.0012393894 0.00046986918
0003f0 0e 17 47 39 3b 88 37 ba 01 ef 24 3a 0c a2 19 3a
       0.00018986707 -0.0007001196 0.0006291718 0.00058606337

layers.1.bias f4 [23]
000000 5c a9 de bd 5e d5 67 3d 94 37 06 3d c3 47 8c bd
       -0.108721465 0.056599967 0.032767847 -0.06849625
000010 06 26 0b 3d aa b2 0c 3d 8c c9 d7 3d c1 55 33 bd
       0.03397181 0.034350075 0.10536489 -0.043782953
000020 fc f9 ed bc a4 76 72 bd 12 57 31 be 68 03 18 3d
       -0.029049866 -0.059195176 -0.17318371 0.037112623
000030 fc 44 30 bd 26 38 97 bd 6f 0d e3 3c e0 bb ec bd
       -0.04303454 -0.07383756 0.027716367 -0.11559272
000040 8c 8b 81 bd 1f b8 94 3d 31 a6 33 3e d7 52 33 3e
       -0.063254446 0.07261681 0.17543866 0.1751207
000050 c4 44 10 3e d5 60 e6 bc f9 28 8b bd
       0.14088732 -0.028122345 -0.06794924

layers.1.fc_self.weight f4 [23, 64]
000000 42 b2 d0 b7 35 7f 22 b0 16 3e 6e bd a1 0f b0 be
       -2.487854e-05 -5.911603e-10 -0.05816468 -0.34386924
000010 7a de 20 be fd 12 0a 3e db 2f ae 30 87 44 25 3e
       -0.15709868 0.13483806 1.2673768e-09 0.16139422
000020 0d ba 68 b6 27 21 8f 35 28 5f a2 b1 21 05 c3 3e
       -3.467899e-06 1.0663979e-06 -4.7256385e-09 0.3808985
000030 0a 0d fc 38 d3 df 6d 3d ee 66 8b 3d 7c eb 9f b8
       0.00012018725 0.058074784 0.06806742 -7.625573e-05
000040 27 b9 e0 12 e3 05 93 3d d6 7b 27 be 50 10 90 3d
       1.4182031e-27 0.07178857 -0.16355833 0.07034361
000050 23 cd 61 be 21 9b 03 bd 26 af 52 3e 07 09 97 bd
       -0.2205091 -0.032130364 0.20574626 -0.07374769
000060 b0 98 e7 bd 48 95 89 b4 9b b2 30 be 32 b2 dd b0
       -0.1130842 -2.5626855e-07 -0.17255633 -1.6130512e-09
000070 c0 50 a4 3e 2c b9 ee bc bb 46 35 be 0b ee 70 bd
       0.32092857 -0.029141031 -0.17702763 -0.058820765
000080 f3 45 18 2e b9 64 d1 bd d1 03 31 ab aa 00 ae 07
       3.4622926e-11 -0.102242894 -6.288833e-13 2.6181e-34
000090 c4 ed 12 be 64 f7 15 be 68 87 c6 1e a5 6e b2 93
       -0.14348513 -0.14645153 2.1020068e-20 -4.504262e-27
0000a0 da 33 b1 3a 3a 9b 0d be a4 bd ca b5 0d 0a 84 3c
       0.0013519481 -0.13828745 -1.5105365e-06 0.016118074
0000b0 33 81 13 b3 fb 65 28 bf f0 82 6f 3e 41 2e 6d bc
       -3.434361e-08 -0.6578061 0.23389792 -0.01447636
0000c0 a3 e8 ec ba 2b cf 80 3d 13 86 98 b1 b6 8f e3 3c
       -0.0018074702 0.06289514 -4.4390247e-09 0.027778488
0000d0 30 74 58 3d 70 a1 8c 3d 94 2b f7 b4 5a 53 a5 be
       0.05284518 0.06866729 -4.6039042e-07 -0.32290155
0000e0 60 28 9c 3c de 16 2a b5 3c 90 ae b5 a7 ce ed 3d
       0.019062221 -6.336321e-07 -1.3005988e-06 0.116116814
0000f0 61 c7 17 be 77 13 90 be 6b 5a b6 bd 76 6c 66 be
       -0.14822151 -0.2813985 -0.089039646 -0.22502312
000100 2e 9b a0 3a da 0a a7 30 be a7 b6 3b b9 0e 46 3e
       0.0012253278 1.2153933e-09 0.0055741956 0.19341554
000110 d4 e5 6b be 43 a9 54 3e 5c 18 55 32 d9 8b 86 3b
       -0.23036891 0.20767693 1.24037705e-08 0.0041060266
000120 79 e9 d0 39 e6 c6 f0 b9 3d a3 f3 37 93 b5 7a be
       0.00039846802 -0.00045924558 2.9043871e-05 -0.24483328
000130 dd 5e af 3a 97 ec 01 3c c3 1d 03 bd 33 03 03 b8
       0.0013379712 0.007929943 -0.032010805 -3.1235813e-05
000140 18 1b 73 93 13 d3 8e 3d a1 6e 11 3f 45 71 2d 3e
       -3.068427e-27 0.06973853 0.5680943 0.1693774
000150 69 a9 f0 3c 86 85 84 be 8c 3f a4 3e fd 03 37 3e
       0.029377656 -0.2588312 0.32079732 0.17872615
000160 6c 8e e1 be 22 41 aa 3a 77 c6 1c 3f 4c 2c d5 b3
       -0.44053972 0.0012989382 0.61240333 -9.926643e-08
000170 ba 72 06 be 47 1d 02 3e ce 9d 87 bd 10 a0 8d bd
       -0.13129702 0.12706481 -0.06621896 -0.06915295
000180 6e 01 a9 b0 74 2b b7 be ee 2a a3 ad 27 b9 cf 08
       -1.2296775e-09 -0.3577534 -1.855002e-11 1.2501888e-33
000190 9c 42 87 3d 01 ee 98 be a6 c4 c7 9d 7c b3 e3 13
       0.066045016 -0.29869083 -5.287819e-21 5.747984e-27
0001a0 4d 9d 46 3b f4 25 bf 3d ce 15 bb bc 77 87 a0 3c
       0.003030616 0.09333411 -0.022837546 0.019595845
0001b0 24 29 eb 33 f5 a3 ad 3c 84 d5 04 3e 2e ca 30 3c
       1.0950524e-07 0.021196345 0.12972075 0.010790391
0001c0 ef 27 cc 3d 3d 14 37 3e 0b 92 98 ba 95 a5 1d 3d
       0.09968554 0.17878814 -0.0011640204 0.03848799
0001d0 ef ef 55 3d 09 16 06 3e 6b 36 7d ba 6d 4f 69 3d
       0.05223077 0.13094343 -0.0009659293 0.056960512
0001e0 a6 ef d4 3e d4 9c 38 38 8b 68 50 3d 57 b5 b1 3c
       0.41589087 4.4015076e-05 0.05088095 0.021692915
0001f0 29 5e e9 3d 46 7e 0b bf 3a e8 5f bc 90 90 52 be
       0.11394913 -0.5448955 -0.013666207 -0.20562959
000200 96 f0 a1 3a fb a3 a7 b0 cc ce 86 bd 0e d3 41 3d
       0.0012355025 -1.2197455e-09 -0.06582412 0.047320418
000210 b0 c6 4c be 63 38 39 3e 30 62 95 31 1b 8f ed 3d
       -0.19997668 0.18087916 4.3476334e-09 0.11599561
000220 83 f9 66 ba 00 fa 53 ba a6 66 b9 30 0a 95 74 3e
       -0.0008810984 -0.0008086264 1.3489696e-09 0.23884979
000230 c5 5b 14 3a 1a 0e d8 3d 9d 37 1e 3d 73 a4 42 b8
       0.00056594267 0.10549565 0.038627256 -4.640636e-05
000240 51 14 01 16 e4 63 50 be 00 f5 41 be 09 2b dd ba
       1.0426948e-25 -0.20350605 -0.18941116 -0.0016873787
000250 ab 03 f1 3d 98 47 8f 3e ba ac 62 3b 6b a9 a9 bb
       0.11768278 0.2798431 0.0034587816 -0.005177667
000260 1a 66 ec 3e 49 b2 89 b9 ac b9 84 be 39 2b 08 37
       0.46171647 -0.0002626351 -0.25922906 8.116295e-06
000270 58 5e 02 be 9a 92 c5 bd 83 aa 64 3e 30 56 24 bd
       -0.12731302 -0.09647103 0.2233067 -0.040121257
000280 fa 71 0c b2 29 58 fd 3c 14 33 30 2e f6 dc 97 8a
       -8.174988e-09 0.030925827 4.0063133e-11 -1.4623887e-32
000290 ad 1b dd 3b c2 86 5c 3d 4c 59 39 a0 01 e8 58 96
       0.006747684 0.053839453 -1.5699655e-19 -1.7521549e-25
0002a0 26 6a 48 be c2 1e ad 3e fb e3 06 bd a3 56 f0 3c
       -0.19571742 0.3381253 -0.032932263 0.029338187
0002b0 f1 a6 ed b3 a2 7a c2 3c 8f 06 4b be 59 ae 6d 3e
       -1.1066539e-07 0.023740117 -0.1982672 0.2321104
0002c0 86 a2 94 3c 8c 45 a6 be 2e b6 15 b9 e7 55 df 3d
       0.018143903 -0.32474935 -0.00014277615 0.109050564
0002d0 1b c5 2e 3f 85 15 56 be 12 59 d2 ba 04 a2 17 3d
       0.6826951 -0.20906647 -0.0016048274 0.037019745
0002e0 71 12 39 be ef 24 9c 3a 1b 23 2c 3c 77 95 50 bf
       -0.18073441 0.0011912863 0.010506417 -0.81478065
0002f0 fc 88 4e 3d 85 07 32 3d 70 e3 f0 bd c7 f9 26 3d
       0.050423607 0.043464202 -0.1176213 0.04076555
000300 3f 31 a8 ba f5 f5 be 30 9d b8 67 3c 45 a8 b0 3d
       -0.0012832059 1.3894225e-09 0.014143136 0.08625845
000310 83 b7 fb 3e d1 c9 00 be a1 02 1c 31 1e 05 4b 3d
       0.49163446 -0.12576987 2.2702482e-09 0.049565427
000320 d1 d2 56 38 ec dc 15 ba a5 15 b0 b6 45 91 af 3d
       5.1217914e-05 -0.0005716819 -5.2477285e-06 0.0857263
000330 f8 15 a9 ba ab 32 74 3c 31 c7 36 bd 07 ff 8b 38
       -0.0012900224 0.014904658 -0.044623557 6.675539e-05
000340 37 e3 16 96 a3 01 8e 3d b6 34 af bd 51 84 fe bc
       -1.21886e-25 0.06933906 -0.08554976 -0.031068953
000350 01 47 18 bf 0e 7c a4 bd 4f 7c 45 bd 8d cc d0 3e
       -0.59483343 -0.08031474 -0.048214253 0.4078106
000360 40 5d 81 3c 83 fd 64 bb be f0 04 3d 94 aa 87 36
       0.015791535 -0.0034941144 0.032456152 4.0431714e-06
000370 17 42 f9 3d de 31 cf 3c 15 95 99 be 72 e6 e0 bd
       0.12170809 0.025292333 -0.29996553 -0.10981454
000380 db e7 2b 33 11 bd 51 3d 26 a4 12 ae 1b d6 f6 09
       4.002491e-08 0.0512057 -3.334235e-11 5.942369e-33
000390 07 a6 16 3b 4f a7 6f 3e 61 36 2a 1e 4b fd 76 14
       0.0022987144 0.23403667 9.01097e-21 1.2469779e-26
0003a0 13 09 41 3d e7 c1 0b be 41 56 d0 3c 5a 92 97 bd
       0.047127794 -0.13648187 0.025431754 -0.07400961
0003b0 6f 43 24 34 d4 8a 90 3e e2 f6 0c 3d c7 ca 13 3e
       1.5298222e-07 0.28230917 0.034415133 0.14432822
0003c0 c2 c7 6a bc 8e 54 04 bc 2f b5 13 38 46 d8 86 3e
       -0.014329853 -0.0080768 3.521627e-05 0.2633688
0003d0 ca f6 4d be 13 82 35 bd 0d 34 93 38 12 c4 56 be
       -0.20113674 -0.0443135 7.0192014e-05 -0.20973232
0003e0 fb 0a 8a 3c 1f 9e dc 39 95 f2 81 3c 65 2e 0b be
       0.016850939 0.0004207948 0.015862742 -0.13591917
0003f0 b2 ba bd 3d dd 7a 8f 3c dd 81 d9 bd e8 79 bb bc
       0.09264125 0.01751464 -0.106204726 -0.022885278

layers.1.fc_neigh.weight f4 [23, 64]
000000 88 e6 a8 b8 37 b7 cc af 87 be 4c bd e1 10 c0 be
       -8.053804e-05 -3.7237566e-10 -0.04998639 -0.37512878
000010 da 0d 43 be 4d 68 01 3e 2f 06 02 2e 61 85 26 3e
       -0.19048253 0.12637444 2.956407e-11 0.16261818
000020 dc 6c e6 b5 12 97 73 34 1f b1 77 b1 9f c1 d2 3e
       -1.7168018e-06 2.2686098e-07 -3.6043912e-09 0.41163346
000030 a8 8e 70 39 19 08 37 3d 6a a1 18 3d fb 59 b5 b8
       0.00022941327 0.044685457 0.03726331 -8.647513e-05
000040 f0 c3 b3 12 96 16 a8 3d 29 2c 34 be 74 0a 57 3d
       1.13447905e-27 0.08207433 -0.17594971 0.052500203
000050 6a 76 8f be 24 af 5c bd 9e 0a 6e 3e 69 91 dc bd
       -0.2802003 -0.053877965 0.23246238 -0.10769922
000060 83 02 e6 bd 89 aa 8c b4 10 2d 34 be a7 78 e5 b0
       -0.11230948 -2.6201113e-07 -0.17595315 -1.6696234e-09
000070 72 31 d9 3e f1 d0 04 bd 43 8a 67 be f8 1a 3c bd
       0.42420536 -0.032425825 -0.22611336 -0.045924157
000080 f7 34 c0 2d fd 49 ef bd ab 22 3e ab d3 fa a4 07
       2.1851394e-11 -0.11684034 -6.754967e-13 2.4823399e-34
000090 d0 cc 41 be 42 14 e2 bd dc c9 e9 1e ef 82 75 93
       -0.18925786 -0.1103902 2.4753322e-20 -3.0987903e-27
0000a0 be 0a 10 3c 23 10 05 be 79 7b c4 b5 1c 5a 5d 3c
       0.008791624 -0.12994437 -1.4639073e-06 0.013510253
0000b0 0c 2f e9 b2 1d 74 3f bf df 3d 94 3e 19 d4 17 bc
       -2.7146164e-08 -0.7478655 0.28953454 -0.009266877
0000c0 3d 52 7c ba de 77 eb 3d 9c cc 92 b1 42 d3 95 3d
       -0.00096252916 0.11497472 -4.2724206e-09 0.07315685
0000d0 d3 be 1d 3d 74 e3 10 3e e7 89 d9 b4 ce 76 bc be
       0.038512062 0.14149266 -4.0519737e-07 -0.3680939
0000e0 69 3e 9b 3d 5d 2e 2b b5 65 56 cc b5 36 59 de 3d
       0.07580263 -6.376993e-07 -1.5224329e-06 0.108568594
0000f0 6b 4f e2 bd 6c e5 95 be a3 c3 e0 bd 70 fa 64 be
       -0.11050304 -0.29276597 -0.10974815 -0.2236116
000100 03 c4 93 3a 48 d1 96 30 eb 4c 4c bd 42 5b bf 3d
       0.0011273626 1.0973418e-09 -0.049878042 0.09343578
000110 a2 5f 02 bf 39 77 86 3e e6 70 04 32 a2 5f 21 3e
       -0.50927174 0.26262835 7.709081e-09 0.15759137
000120 9d b5 64 39 a5 a7 f2 b9 bb db b1 37 f0 56 4a bf
       0.0002181143 -0.00046282742 2.1202364e-05 -0.79038906
000130 fe 8c b2 3a 6b 0b c5 3d 82 55 ea 3e b2 e9 0c b8
       0.0013622341 0.096213184 0.45768362 -3.3596247e-05
000140 7b a4 74 93 e2 a3 50 3d 86 47 87 3f db 28 0e 3f
       -3.0878225e-27 0.05093754 1.0568702 0.5553109
000150 4b 8e 27 3e 6e c1 28 bf 8c 9f 28 3e 2e 75 7e 3e
       0.16362874 -0.6592015 0.16467112 0.24849388
000160 2e 8e 76 bf 3b 18 c9 3a bf 9d 89 3f af cb 96 b3
       -0.963107 0.0015342304 1.0751265 -7.021969e-08
000170 7f e7 bc be 3e 53 82 3a 5b 2b 37 3e f3 39 4a be
       -0.36895368 0.0009943021 0.17887633 -0.19748668
000180 90 ef f2 b0 8f 36 1f bf 70 a7 a7 ad 47 3d 02 09
       -1.7675905e-09 -0.62192625 -1.9060059e-11 1.5676993e-33
000190 27 4d a2 3e 6a 5f 47 bf e6 67 7a 9f b9 13 85 13
       0.31699488 -0.77879965 -5.3025502e-20 3.359337e-27
0001a0 10 db 56 be 7e ea 0f 3d 88 17 c8 bc a7 5f 90 3c
       -0.20982003 0.03513574 -0.024425283 0.017623736
0001b0 c2 f5 a9 33 52 21 5c be 32 a7 4c 3e 90 3f 3f 3e
       7.914379e-08 -0.21497086 0.19985655 0.18676591
0001c0 69 9b d1 3d de bd 14 3f 29 c9 73 ba d8 1a 75 3e
       0.1023472 0.58102214 -0.00092996896 0.23936021
0001d0 76 f8 9f 3d 3e b6 b2 3d 0b 5f 65 ba dd 09 a7 3d
       0.07811062 0.08726166 -0.0008749819 0.08156178
0001e0 d5 5c 22 3f f8 85 4e 38 24 e5 4f 3d fd 6f 8c bd
       0.634229 4.9238995e-05 0.050755635 -0.068572976
0001f0 90 ca 1a 3e 95 46 b0 bf 78 8b 38 be 6f 92 4a be
       0.15116334 -1.377154 -0.18021953 -0.19782422
000200 7c e9 6f 3a 24 82 81 b0 2a 87 64 bd dd 98 01 3f
       0.00091519183 -9.422974e-10 -0.055792965 0.50623876
000210 6e 33 02 bf 95 23 97 3c 3e 5b 7a b1 0c 36 15 3e
       -0.50859725 0.018449584 -3.6431653e-09 0.14571398
000220 80 a2 17 ba 95 52 56 ba c9 c1 68 b1 db 73 4c 3f
       -0.0005784407 -0.0008175758 -3.3870597e-09 0.7986428
000230 41 26 da 39 78 21 78 3e 1d 2e c0 3e b3 fd 4b b8
       0.00041608702 0.24231517 0.37535182 -4.8635247e-05
000240 0e e3 f9 15 85 3f 89 be 48 2f c5 be 93 a3 98 3e
       1.0092853e-25 -0.26806274 -0.38512635 0.29812297
000250 2b 59 aa 3e 61 50 31 3f 7a 2e 5b 3e 73 fb 69 3e
       0.33271155 0.69263273 0.21404448 0.22849827
000260 fa 6c 1d 3f e5 f2 91 3a 2a c4 bf be 84 ae 0d 37
       0.6149441 0.001113501 -0.3745435 8.4448875e-06
000270 5b 00 9b be 32 e9 3e be ff 1c c8 3d 94 25 65 bd
       -0.3027371 -0.18643644 0.097711556 -0.05594404
000280 41 55 0e b2 fe 6a 89 3e c7 c8 36 2e a4 e0 92 8a
       -8.284872e-09 0.2683944 4.1560335e-11 -1.4143789e-32
000290 7a cc 14 3e 6e 36 c8 3c 44 38 12 a0 91 d6 01 94
       0.14531127 0.024440017 -1.2385298e-19 -6.5551514e-27
0002a0 e3 d2 89 3c bf 61 10 3f 82 fe 00 bd e3 9a 00 3d
       0.016824191 0.5639915 -0.031492718 0.03139771
0002b0 52 27 25 b3 c9 9c 1c 3e 87 05 b5 be d7 a4 e0 3e
       -3.8452818e-08 0.15294184 -0.3535578 0.43875763
0002c0 f8 1a a3 3c c4 7d 55 bf 4a 5c 7b b9 eb bb cb 3d
       0.01991032 -0.8339503 -0.00023971606 0.09947952
0002d0 75 7f b0 3f e4 f2 0f bf 53 2d 87 ba ad 9a 40 3e
       1.3788897 -0.56229997 -0.001031319 0.18809004
0002e0 8b 87 f5 be 86 28 aa 3a 91 3b 3a 3c a5 54 fd bf
       -0.47954974 0.0012982048 0.011366741 -1.9791456
0002f0 18 41 ab 3d c6 0e fd 3d da bd 21 be 41 c2 6a 3e
       0.08362025 0.123563334 -0.15795079 0.22925664
000300 48 11 c5 ba f5 ae c8 30 3f c7 2a bd 14 df e0 3c
       -0.0015035057 1.4601641e-09 -0.041693922 0.027450122
000310 b1 01 ab 3f 8f f7 d2 3e ea 41 02 32 f1 59 39 3d
       1.3359891 0.41204497 7.581983e-09 0.04525179
000320 6c 46 26 b9 54 89 1b ba 44 9e b2 b6 59 3c 08 3c
       -0.00015857228 -0.0005933244 -5.323238e-06 0.008315169
000330 3e 72 b9 ba ef 4e 14 bd 2f 8c 31 3e 79 cd 67 38
       -0.0014148427 -0.03620809 0.17338632 5.5266053e-05
000340 73 1a 19 96 8b 8f cc 3c 82 b6 8b be f8 73 d7 bd
       -1.2367587e-25 0.02497079 -0.2728768 -0.10520166
000350 3f 95 a7 bf 53 fa 8f bd 7c c0 00 3e c9 83 d2 3e
       -1.3092421 -0.070301674 0.12573427 0.4111617
000360 70 1c 81 bd 41 c3 3f bb 64 97 8a 3b c4 ac 91 36
       -0.06304252 -0.0029260668 0.004229473 4.3414493e-06
000370 f1 48 2d 3f d5 4c 81 bd 93 b8 58 bf 05 3b bd bd
       0.67689425 -0.06313483 -0.8465664 -0.09239773
000380 c2 4b 27 33 f6 f2 1d bb 36 40 12 ae df 19 f9 09
       3.895162e-08 -0.0024101115 -3.3253587e-11 5.99689e-33
000390 64 f9 92 3d 62 28 2c 3f 4a ed f0 1e e5 6b 58 14
       0.07176474 0.6724912 2.5509129e-20 1.09264916e-26
0003a0 ca 0f 0d 3e da 62 10 bf d5 69 cf 3c cb 70 94 bd
       0.13775554 -0.56400836 0.02531902 -0.07248076
0003b0 8d 5e 19 34 75 b3 f0 3e 7f f5 2d 3c ec 71 a9 3e
       1.4283633e-07 0.47011915 0.010617613 0.33094728
0003c0 ba 5f 4c bc 91 0c b2 be 59 d4 5d b9 f5 bc f3 3e
       -0.012473995 -0.34775212 -0.00021155308 0.476051
0003d0 ef b0 ab be 3a db 7e 3e 14 6d fe b8 30 0c e9 bd
       -0.33533427 0.24888316 -0.00012131981 -0.11379278
0003e0 fa ad 99 3c 9c ee b4 39 89 71 76 3c 32 62 8d be
       0.018759716 0.00034510053 0.015041717 -0.2761398
0003f0 3d 43 0f 3e 7e 63 16 3e 27 7e f1 bd 6f 3e 8d 3e
       0.13990493 0.14686391 -0.1179164 0.27586696
