baseline/gnn/output/dgl_model-050209.pth (torch, 168321 bytes, 6 tensors)

layers.0.bias f4 [64]
-0.00016053344 -0.12661147 0.11576881 0.081453696 1.1202127e-16 -0.08212337 6.059996e-21 -0.049923655
-0.0008909265 0.00385149 6.152646e-21 0.0803282 0.11876668 -0.0807587 0.1536216 -0.05304526
-6.0130185e-09 -0.077019535 -1.3461931e-26 0.041524347 -0.045407817 -2.3768574e-09 0.18123329 -0.0018914297
0.03750509 -3.2464104e-05 -9.873385e-19 -4.9531485e-05 0.046594247 0.05876948 0.028780157 -0.00024952283
-0.0033330892 0.053408615 -0.026048806 0.25077665 0.010315476 0.0047566765 0.012868245 1.642732e-23
-0.0005185397 0.076662086 -0.0001976321 0.096050255 0.11525511 -0.03702496 -0.079891846 0.07661702
0.017164204 0.08283409 -8.867901e-05 -0.026208201 0.18938304 0.034602266 -0.042911313 -0.054911535
0.08872344 0.12643644 0.055059135 0.06374077 -0.00013412719 -4.3268146e-06 -0.02918822 0.11612305
00000000: de54 28b9 70a6 01be 3318 ed3d 32d1 a63d
00000010: d826 0125 4c30 a8bd aff0 e41d bf7c 4cbd
00000020: 118d 69ba 4869 7c3b be70 e81d 1c83 a43d
00000030: f23b f33d d164 a5bd fb4e 1d3e fd45 59bd
00000040: 129b ceb1 6bbc 9dbd 0d52 8594 6f15 2a3d
00000050: 8cfd 39bd 1e56 23b1 3895 393e d9e9 f7ba
00000060: f09e 193d 112a 08b8 98b4 91a1 07c0 4fb8
00000070: 9cd9 3e3d 44b8 703d 5dc4 eb3c 63d2 82b9
00000080: f56f 5abb fec2 5a3d 4e64 d5bc cc65 803e
00000090: 3e02 293c e5dd 9b3b 55d5 523c 13e0 9e19
000000a0: 9cee 07ba 0301 9d3d 763b 4fb9 ffb5 c43d
000000b0: df0a ec3d 7ca7 17bd 569e a3bd 62e9 9c3d
000000c0: f29b 8c3c eba4 a93d 2ef9 b9b8 95b2 d6bc
000000d0: a1ed 413e 1bbb 0d3d c6c3 2fbd ebea 60bd
000000e0: a3b4 b53d 8e78 013e b085 613d 858a 823d
000000f0: 7ea4 0cb9 0e2f 91b6 221c efbc ecd1 ed3d

layers.0.fc_self.weight f4 [64, 300]
-5.403333e-06 -1.2908065e-05 -2.5424244e-05 4.3204454e-05 8.804417e-06 2.2243774e-05 4.0092007e-05 -3.9822284e-05
-1.8788805e-05 0.00022246585 -3.411021e-05 2.3680643e-05 2.7446793e-05 -2.5941079e-05 -1.3376877e-05 -4.521422e-05
-6.361821e-05 5.828802e-05 -5.3347587e-05 -1.689081e-05 -1.6543627e-05 3.884093e-05 -4.1795425e-05 5.9930648e-05
-7.4297364e-05 4.604035e-05 -0.00012707163 2.6112648e-05 5.571575e-05 -2.2326682e-05 -6.2998384e-05 -1.1839284e-05
-2.2223992e-05 3.13403e-05 7.570699e-05 6.497978e-05 -2.5249543e-05 -3.8551603e-05 4.7258098e-05 -2.8186872e-05
-3.0308393e-05 -1.1725952e-05 3.0162108e-05 5.3358013e-05 -3.5187728e-05 4.938597e-05 2.6564398e-05 -9.91051e-06
-1.18159405e-05 -6.069906e-06 1.6327464e-05 2.9110593e-05 -7.3294366e-05 6.185014e-05 2.8989905e-06 -1.8646522e-05
1.6294776e-05 8.6018255e-05 -5.1885138e-05 3.0330644e-05 9.123675e-06 1.1805842e-05 -5.14518e-05 5.4454867e-05
5.2571955e-05 -1.0176926e-05 4.9270086e-05 0.000116070514 -1.6934197e-05 2.5899375e-05 -4.2401175e-06 -3.2031025e-05
2.3790057e-05 2.4702906e-05 5.418008e-05 5.1116032e-05 2.2749713e-05 -5.4327998e-06 -2.0885473e-05 1.3681003e-05
-6.9482667e-06 6.4851396e-05 2.3723198e-05 -6.325221e-05 -2.3672615e-05 -8.271103e-06 -4.1210136e-05 0.00012586154
2.1549953e-05 8.1926424e-05 4.7093487e-05 -5.354349e-05 3.4886284e-06 1.776692e-05 1.9303507e-05 -5.3463245e-05
3.6319334e-06 -6.7934096e-05 3.676574e-05 -2.5675323e-05 2.1367503e-05 3.8552247e-05 -7.772738e-05 -6.516238e-05
9.3802955e-05 1.7173437e-05 -1.7751097e-05 4.0634477e-05 3.072204e-05 -7.1550753e-06 3.140928e-05 7.08002e-06
3.9809263e-05 1.5641024e-05 -4.4543547e-05 7.68107e-06 1.2880312e-05 6.3979365e-05 6.2302142e-06 6.7252644e-05
2.2491488e-06 2.8607697e-05 2.8022619e-06 -8.4937994e-05 1.0942656e-05 -6.624584e-06 -6.6386556e-06 -2.2671153e-05
4.927609e-05 -4.8946686e-06 -1.5643346e-06 2.3610528e-05 1.1514943e-05 -8.851721e-05 2.9051358e-05 4.163729e-05
-2.3769346e-05 1.4001844e-05 3.5491877e-05 3.926041e-05 -0.000119177814 -1.0474016e-05 -1.8725837e-05 9.4307565e-05
-4.732486e-06 8.382425e-06 -6.358108e-05 -4.211641e-05 3.589618e-06 3.6210127e-05 -1.1424002e-05 2.0048146e-05
-1.2838711e-05 3.4119195e-05 -7.90126e-05 7.3546826e-06 1.7769278e-07 2.7717513e-05 -2.0620286e-05 -4.374091e-05
-4.2054594e-06 -2.0660338e-05 1.7260545e-06 -4.8823513e-05 -7.41e-06 -2.446747e-05 1.6428457e-05 1.6175354e-05
1.2031173e-05 8.710025e-06 -3.83653e-05 2.5788477e-05 -2.2161434e-05 -3.0847077e-05 1.7237971e-05 2.871111e-05
-1.1290852e-05 1.6667813e-05 2.234461e-05 -1.0906683e-06 6.335006e-05 -3.3101703e-06 -4.2334712e-05 -1.4413255e-05
-2.5465417e-05 -3.9040788e-05 -8.903572e-05 3.613758e-05 -3.522002e-05 -5.4572367e-05 -5.1672247e-05 6.596764e-05
-7.605637e-05 5.7694488e-05 4.8505575e-05 6.593824e-05 -5.3583244e-05 -7.876612e-05 -8.7890236e-05 2.5084082e-05
1.7261524e-05 3.590474e-06 -2.186981e-05 3.0957704e-05 5.5230397e-05 0.000103292296 2.6117295e-05 -0.00010249696
-2.0631627e-05 -2.9199162e-05 -1.918968e-05 -5.7739497e-05 2.1818478e-05 -1.3956192e-05 4.729911e-05 1.5143342e-05
-3.1384786e-06 2.338972e-05 6.8420337e-07 -6.595026e-08 2.700751e-05 -3.9891598e-05 -1.5808158e-05 7.628653e-06
1.0336984e-06 2.0749272e-05 -1.2004989e-05 8.156473e-06 1.9164303e-05 4.243989e-05 1.33153635e-05 1.924288e-06
8.72796e-06 1.0532512e-05 -3.231658e-05 -7.376201e-06 -1.9708857e-06 -5.0711948e-05 1.4787947e-05 3.520205e-05
1.0313135e-05 1.2067434e-06 7.403961e-05 -1.0377628e-05 4.6388683e-05 -6.284402e-06 -6.045585e-05 -3.571386e-05
-1.827756e-05 2.794783e-05 8.064728e-06 -3.9293477e-06 6.899315e-06 1.1586797e-05 -3.7386906e-06 4.821716e-05
00000000: 474e b5b6 b88f 58b7 2646 d5b7 6e36 3538
00000010: afb6 1337 2498 ba37 7728 2838 da06 27b8
00000020: a79c 9db7 b945 6939 8f11 0fb8 cba5 c637
00000030: 8a3d e637 0b9c d9b7 406d 60b7 66a4 3db8
00000040: c46a 85b8 497a 7438 89c1 5fb8 bdb0 8db7
00000050: 2bc7 8ab7 22e9 2238 7f4d 2fb8 0b5e 7b38
00000060: 18d0 9bb8 731b 4138 883e 05b9 7c0c db37
00000070: 55b0 6938 2f4a bbb7 001e 84b8 56a1 46b7
00000080: a96d bab7 6473 0338 e1c4 9e38 c145 8838
00000090: fbce d3b7 78b2 21b8 ff36 4638 d972 ecb7
000000a0: c73e feb7 95ba 44b7 a204 fd37 bbcc 5f38
000000b0: 8996 13b8 c823 4f38 9cd6 de37 5145 26b7
000000c0: 143d 46b7 18ac cbb6 f6f6 8837 8632 f437
000000d0: 9db5 99b8 8bb5 8138 478c 4236 1a6b 9cb7
000000e0: c4b0 8837 b364 b438 3e9f 59b8 906e fe37
000000f0: e311 1937 b511 4637 f3cd 57b8 7866 6438
00000100: b580 5c38 90bd 2ab7 5aa7 4e38 e26a f338
00000110: e90d 8eb7 7c42 d937 5546 8eb6 0d59 06b8
00000120: c290 c737 1639 cf37 6b3f 6338 6c65 5638
00000130: a3d6 be37 654b b6b6 3633 afb7 7687 6537
00000140: 2825 e9b6 d400 8838 2e01 c737 46a6 84b8
00000150: 8e94 c6b7 1ec4 0ab7 0cd9 2cb8 b3f9 0339
00000160: 2cc6 b437 eacf ab38 3f86 4538 e293 60b8
00000170: 2e1e 6a36 2c0a 9537 f7ed a137 b93d 60b8
00000180: 24bc 7336 d777 8eb8 ea34 1a38 5661 d7b7
00000190: 5d3e b337 29b3 2138 9201 a3b8 c9a7 88b8
000001a0: 14b8 c438 ad0f 9037 31e8 94b7 f06e 2a38
000001b0: 8adb 0038 a115 f0b6 75bd 0338 e990 ed36
000001c0: dff8 2638 d834 8337 45d4 3ab8 f2dd 0037
000001d0: 8518 5837 a92c 8638 220d d136 fd09 8d38
000001e0: 15f0 1636 90fa ef37 7e0e 3c36 bd20 b2b8
000001f0: 5a96 3737 be48 deb6 9ec1 deb6 ee2d beb7
00000200: ccad 4e38 e23c a4b6 21f6 d1b5 390f c637
00000210: 4e30 4137 51a2 b9b8 51b3 f337 b3a3 2e38
00000220: 4864 c7b7 76e9 6a37 1ddd 1438 8bab 2438
00000230: 1aef f9b8 8eb9 2fb7 6e15 9db7 fdc6 c538
00000240: bfcb 9eb6 3ea2 0c37 d556 85b8 27a6 30b8
00000250: 2be5 7036 54e0 1738 b7a9 3fb7 112d a837
00000260: d865 57b7 351b 0f38 91b3 a5b8 3ec8 f636
00000270: d2cb 3e34 e882 e837 baf9 acb7 7276 37b8
00000280: 9f1c 8db6 bd4f adb7 c8aa e735 d9c7 4cb8
00000290: 6aa3 f8b6 7e3f cdb7 d8cf 8937 4fb0 8737
000002a0: 7fd9 4937 4621 1237 6dea 20b8 5554 d837
000002b0: 51e7 b9b7 cc61 01b8 439a 9037 a4d8 f037
000002c0: d76d 3db7 dbd1 8b37 af70 bb37 1463 92b5
000002d0: ceda 8438 4b24 5eb6 8d90 31b8 75d0 71b7
000002e0: 919e d5b7 babf 23b8 b0b8 bab8 6e92 1738
000002f0: 35b9 13b8 a2e4 64b8 a7ba 58b8 1b58 8a38
00000300: 7480 9fb8 fcfc 7138 7772 4b38 5348 8a38
00000310: 92be 60b8 3d2f a5b8 b651 b8b8 a86b d237
00000320: d7cc 9037 e0f3 7036 0f75 b7b7 95d8 0138
00000330: 30a7 6738 a19e d838 7716 db37 a3f3 d6b8
00000340: 1512 adb7 b9f0 f4b7 86f9 a0b7 502d 72b8
00000350: d306 b737 6325 6ab7 0863 4638 2910 7e37
00000360: a79e 52b6 0b35 c437 19aa 3735 8aa0 8db3
00000370: 308e e237 4751 27b8 c39b 84b7 a1f9 ff36
00000380: 9bbd 8a35 b90e ae37 0969 49b7 c9d7 0837
00000390: 07c3 a037 7c01 3238 0d65 5f37 0423 0136
000003a0: 4e6e 1237 cbb4 3037 aa8b 07b8 1681 f7b6
000003b0: 8f43 04b6 8ab3 54b8 c019 7837 eaa5 1338
000003c0: 9406 2d37 63f7 a135 b745 9b38 931b 2eb7
000003d0: 7891 4238 9ade d2b6 fa91 7db8 77cb 15b8
000003e0: c352 99b7 8271 ea37 be4d 0737 d7d8 83b6
000003f0: aa80 e736 ea64 4237 37e6 7ab6 c83c 4a38

layers.0.fc_neigh.weight f4 [64, 300]
-9.2300525e-06 -1.7818984e-05 -3.07776e-05 3.3419903e-05 2.5533922e-05 3.7905214e-05 2.4942454e-05 -3.9705013e-05
-2.612171e-05 0.00020580366 -3.3079483e-05 1.6946562e-05 3.384396e-05 -2.7671013e-05 -1.5394999e-05 -4.3561628e-05
-7.0896145e-05 5.572675e-05 -5.0507573e-05 -9.479635e-06 -1.8841336e-05 1.4554099e-05 -5.9673468e-05 6.7740504e-05
-6.495291e-05 3.6730158e-05 -0.00013339607 4.6691006e-05 6.228398e-05 -1.1020399e-05 -6.4899e-05 -1.7311299e-05
-2.8502778e-05 3.866675e-05 7.440921e-05 5.910846e-05 -2.9261004e-05 -3.3588974e-05 5.3146454e-05 -3.2700777e-05
-2.1041176e-05 -1.1187402e-05 2.611333e-05 3.044965e-05 -3.534892e-05 3.548852e-05 -1.0304336e-06 -1.7840057e-05
-4.4440403e-05 -8.651168e-06 6.6053617e-06 -3.5486424e-05 -7.7169716e-05 3.48408e-05 -7.651662e-06 -2.6913509e-05
1.3895151e-05 8.363733e-05 -7.2245835e-05 2.1764226e-05 5.32337e-06 3.6025845e-06 -4.1896375e-05 5.8081467e-05
4.5788427e-05 -1.1804425e-05 4.4251887e-05 0.000110815105 -2.1797856e-05 2.345937e-07 -1.0449933e-05 -3.553008e-05
2.5494166e-05 1.6530963e-05 8.992648e-05 7.403822e-05 3.4531226e-05 -8.744172e-06 -2.315806e-05 1.0844445e-05
5.4316547e-07 0.00012370748 2.2602926e-05 -5.9697344e-05 6.41316e-06 -1.9257235e-05 -4.3447308e-05 0.00014116427
2.3903842e-05 8.691913e-05 5.709787e-05 -4.69163e-05 3.591289e-05 2.6911108e-05 3.070332e-05 -5.5254848e-05
3.3005238e-06 -6.0198345e-05 3.507641e-05 -2.9224768e-05 3.019331e-05 5.1562554e-05 -9.094593e-05 -6.109743e-05
8.681068e-05 2.9780967e-05 -1.4644158e-05 4.918483e-05 4.3263382e-05 -4.43774e-06 5.4745622e-05 -2.0612374e-06
4.9964798e-05 1.816956e-05 -5.081409e-05 7.1167283e-06 1.7799888e-05 6.0596696e-05 -1.9693669e-05 5.517307e-05
6.936734e-06 -3.3554452e-06 -1.0399863e-05 -7.2284536e-05 1.167938e-05 6.527237e-06 2.1310881e-05 -5.8160116e-05
3.6517256e-05 3.908281e-06 1.2746276e-06 2.6442956e-05 8.133926e-06 -5.787993e-05 2.624787e-05 8.169723e-05
-1.06058915e-05 1.9489364e-05 2.7357144e-05 3.8090348e-05 -0.000106784064 -4.2084557e-06 -8.314146e-06 6.8819434e-05
-1.7650378e-05 8.914819e-06 -6.391461e-05 -4.7268237e-05 1.4402027e-06 2.6157522e-05 1.6998804e-06 2.9372883e-05
2.807269e-06 -9.508636e-06 -7.4348914e-05 -3.3779418e-06 2.7922491e-05 1.6851345e-05 -3.1795615e-05 -7.6843e-05
1.5033185e-06 -3.8703442e-06 -8.059361e-06 -4.622841e-05 -1.950798e-05 -1.0674177e-05 1.5579124e-05 3.4659602e-06
2.0003847e-05 -4.4104004e-06 -4.9515787e-05 4.3058157e-05 -2.4485926e-05 1.7201357e-05 1.883498e-05 1.2064184e-05
-1.6073998e-05 2.4469105e-05 1.4032534e-05 1.2083573e-06 6.725939e-05 -1.4434157e-06 -4.8255977e-05 -1.3655231e-05
-3.7342557e-05 -3.5584377e-05 -2.1762182e-05 4.0315634e-05 -2.8861863e-05 -4.6071687e-05 -5.58023e-05 5.8615966e-05
-7.118981e-05 6.572618e-05 2.7676513e-05 4.9998514e-05 -5.6314813e-05 -7.326675e-05 -9.2343624e-05 2.6711172e-05
1.1304562e-05 9.664006e-06 -4.094766e-05 1.5515678e-05 4.4377848e-05 9.468911e-05 2.7530219e-05 -0.00011206843
-1.635618e-05 -3.1818894e-05 -1.0650716e-05 -5.7470123e-05 2.2046679e-05 -1.1640683e-05 5.414018e-05 3.4021417e-05
6.58141e-06 2.8164251e-05 -1.2883202e-05 -2.5998675e-05 1.4795723e-05 -4.569e-05 -2.1496928e-05 1.2541248e-06
1.3924452e-05 2.9319863e-05 -1.0248295e-05 3.917081e-07 2.226699e-05 3.6817135e-05 6.054264e-06 1.0531627e-05
2.2293798e-05 -5.9081503e-06 -3.735035e-05 -1.1667375e-05 -2.1435459e-05 -4.4348817e-05 8.177369e-06 5.215359e-05
-2.298939e-06 -1.6200906e-05 7.744868e-05 -6.0000575e-06 4.5073368e-05 -7.877147e-06 -6.875515e-05 -3.2976553e-05
-2.8289238e-05 -2.1591817e-05 -1.1449904e-05 9.992728e-06 5.135529e-06 6.2580643e-06 2.2001066e-06 4.828879e-05
00000000: c6da 1ab7 fa79 95b7 3217 01b8 592c 0c38
00000010: ae31 d637 6afc 1e38 833b d137 ef88 26b8
00000020: f21f dbb7 00cd 5739 d3be 0ab8 7728 8e37
00000030: adf3 0d38 0c1f e8b7 8224 81b7 f1b5 36b8
00000040: 14ae 94b8 24bc 6938 18d8 53b8 b90a 1fb7
00000050: 760d 9eb7 612d 7437 e649 7ab8 e80f 8e38
00000060: 5437 88b8 b50e 1a38 3ce0 0bb9 16d6 4338
00000070: 759e 8238 41e4 38b7 631a 88b8 bb37 91b7
00000080: 4019 efb7 1b2e 2238 240c 9c38 3aeb 7738
00000090: 8775 f5b7 e3e1 0cb8 92e9 5e38 3128 09b8
000000a0: 9581 b0b7 87b1 3bb7 f30d db37 206e ff37
000000b0: 9d43 14b8 82d9 1438 6e4d 8ab5 3ba7 95b7
000000c0: 8565 3ab8 7c24 11b7 a0a3 dd36 42d7 14b8
000000d0: 2dd6 a1b8 0622 1238 a35f 00b7 52c4 e1b7
000000e0: 381f 6937 7366 af38 b082 97b8 5292 b637
000000f0: 669f b236 eec3 7136 e4b9 2fb8 809c 7338
00000100: f30c 4038 9f0b 46b7 1a9b 3938 6865 e838
00000110: 8ada b6b7 a0e4 7b34 1f52 2fb7 2206 15b8
00000120: 4edc d537 f9ab 8a37 e996 bc38 f744 9b38
00000130: 9fd5 1038 efb3 12b7 8e43 c2b7 89f0 3537
00000140: 0cce 1135 79b7 0139 6a9b bd37 8963 7ab8
00000150: a030 d736 998a a1b7 313b 36b8 7f05 1439
00000160: 1c85 c837 5a48 b638 5f7c 6f38 fec7 44b8
00000170: 2ca1 1638 2abf e137 70c7 0038 71c1 67b8
00000180: 917e 5d36 7b7d 7cb8 021f 1338 b627 f5b7
00000190: a447 fd37 df44 5838 39ba beb8 6f21 80b8
000001a0: 210e b638 24d2 f937 2eb0 75b7 cf4b 4e38
000001b0: b475 3538 e5e7 94b6 aa9e 6538 ca53 0ab6
000001c0: 4b91 5138 d56a 9837 3721 55b8 3bcc ee36
000001d0: f850 9537 3529 7e38 d533 a5b7 a269 6738
000001e0: 17c2 e836 1c2e 61b6 127b 2eb7 7797 97b8
000001f0: 8ef2 4337 8a04 db36 c5c4 b237 f3f0 73b8
00000200: 1b2a 1938 e123 8336 df13 ab35 d1d1 dd37
00000210: f276 0837 1ac4 72b8 df2e dc37 de54 ab38
00000220: f5ef 31b7 177d a337 057d e537 33c3 1f38
00000230: 42f1 dfb8 5c36 8db6 fc7c 0bb7 2753 9038
00000240: e60f 94b7 db90 1537 e509 86b8 e241 46b8
00000250: fd4c c135 da6c db37 7227 e435 c965 f637
00000260: 8464 3c36 4887 1fb7 c5eb 9bb8 99b0 62b6
00000270: 183b ea37 fd5b 8d37 485c 05b8 c626 a1b8
00000280: a1c5 c935 01de 81b6 b136 07b7 61e5 41b8
00000290: 11a5 a3b7 3e15 33b7 eaaf 8237 be98 6836
000002a0: efcd a737 0dfd 93b6 2caf 4fb8 5899 3438
000002b0: 2067 cdb7 a24b 9037 d0ff 9d37 4767 4a37
000002c0: a6d6 86b7 0143 cd37 466d 6b37 d72e a235
000002d0: 9c0d 8d38 63bb c1b5 7666 4ab8 c518 65b7
000002e0: 44a0 1cb8 6f40 15b8 ee8d b6b7 9518 2938
000002f0: 611c f2b7 193d 41b8 430d 6ab8 6ada 7538
00000300: bd4b 95b8 79d6 8938 dc2a e837 7fb5 5138
00000310: 9233 6cb8 c9a6 99b8 9ba8 c1b8 ce11 e037
00000320: b9a8 3d37 9722 2237 37bf 2bb8 aa27 8237
00000330: 5a22 3a38 d493 c638 b2f0 e637 4806 ebb8
00000340: a134 89b7 4775 05b8 7ab0 32b7 130c 71b8
00000350: e2f0 b837 5a4c 43b7 9314 6338 38b2 0e38
00000360: e2d5 dc36 4542 ec37 ee24 58b7 bb17 dab7
00000370: 253b 7837 44a3 3fb8 4d54 b4b7 6653 a835
00000380: 119d 6937 edf3 f537 18f0 2bb7 f44b d234
00000390: ffc9 ba37 196c 1a38 bb25 cb36 feb0 3037
000003a0: 9103 bb37 a03e c6b6 a2a8 1cb8 febe 43b7
000003b0: 4cd0 b3b7 2e03 3ab8 8831 0937 7ebf 5a38
000003c0: 7947 1ab6 2ee7 87b7 f26b a238 1a54 c9b6
000003d0: 290d 3d38 1728 04b7 a430 90b8 4e50 0ab8
000003e0: ad4e edb7 1320 b5b7 f718 40b7 71a6 2737
000003f0: dc51 ac36 5dfc d136 8ba5 1336 b289 4a38

layers.1.bias f4 [23]
-0.10086572 0.07417532 0.08335755 0.00963044 0.029974185 0.025206387 0.096315 -0.2191809
-0.016077215 -0.011303828 -0.09447936 -0.035835844 0.060355213 -0.1324083 0.05406821 -0.11133129
-0.032014366 -4.4063716e-05 0.10816442 0.116951056 0.16632977 -0.035745874 -0.05219007
00000000: b092 cebd 3be9 973d 5db7 aa3d fec8 1d3c
00000010: 6c8c f53c a07d ce3c cc40 c53d f570 60be
00000020: 5db4 83bc b133 39bc 657e c1bd 9bc8 12bd
00000030: 0737 773d 0b96 07be a176 5d3d a901 e4bd
00000040: 7f21 03bd 0ed1 38b8 4f85 dd3d 0984 ef3d
00000050: 5a52 2a3e 446a 12bd 41c5 55bd

layers.1.fc_self.weight f4 [23, 64]
-4.871504e-08 -0.11609654 -0.135003 -0.111296415 2.498529e-18 -0.11510597 -2.6837112e-20 -0.043163534
2.5610494e-05 -0.22583324 -1.4791164e-20 -0.0018433533 -0.33285347 -0.15593003 0.02856904 -0.12486159
1.6782267e-10 0.6424542 6.492659e-28 -0.17421535 0.06137681 -1.5913695e-09 0.10117058 0.000582868
-0.28141588 -3.101654e-07 9.016278e-21 3.1038702e-08 -0.1590464 -0.008386264 -0.114878125 4.0200117e-08
-0.115740575 0.047225866 0.099150695 -0.4639133 -0.035582975 0.030816965 -0.13790306 -5.857213e-23
2.191365e-09 -0.16406947 -3.7569296e-06 0.012859814 -0.19026232 0.13528751 0.029149087 -0.0539032
0.17486465 -0.11368619 -5.1900837e-08 -0.12636253 -0.07770182 -0.16378815 -0.0028273864 -0.093375705
-0.045122948 -0.26840627 -0.012857993 0.13654765 -1.7258459e-06 -3.624942e-07 -0.14128378 0.29189548
0.00050953496 0.15204701 0.052657526 -0.26765242 -2.6270603e-17 0.068854295 1.8061565e-19 0.03457532
-0.032891057 -0.48393565 5.3584505e-20 -0.03541293 0.2669913 -0.19986841 -0.0050085234 0.1167064
1.2271972e-10 0.23449546 -7.416773e-27 -0.40659308 0.034778964 2.7380676e-09 0.020886682 0.0004436184
-0.26627368 2.3424838e-05 1.861511e-20 -0.001286438 -0.15258843 -0.0024462205 0.6290073 2.8994282e-05
-0.2872067 -0.13828367 -0.5696661 0.099884175 0.077195965 -0.13861544 0.3398991 2.0718446e-23
-0.00026699124 -0.049213365 -1.8075352e-05 0.09167341 -0.114669845 0.11727916 -0.10219931 0.052411
0.2867485 0.12886447 0.0032786487 -0.16000125 0.17982307 0.14783108 -0.04090663 0.03893754
0.10620959 0.0884425 0.02293981 -0.037578575 0.00015897687 -2.3226548e-06 0.69282573 -0.005625649
0.00040158472 0.07728763 0.061682332 -0.035976812 -1.2383371e-14 0.039610405 -9.600234e-19 0.7327434
0.0151045695 0.10198908 -3.603931e-19 0.09645473 0.1744255 -0.15696424 -0.08436836 0.0093086725
-2.9688303e-07 -0.25446278 1.1275714e-27 0.6463136 -0.466891 1.8288224e-09 0.04356319 -0.00021756717
-0.031333487 3.7933726e-06 -1.4173618e-18 0.00034379354 0.09826027 0.06657064 -0.35358265 -0.0011256201
-0.17913634 0.0032680274 0.04955321 -0.033491597 0.038953997 -0.009370818 0.03506388 -9.959286e-22
0.001549225 0.01715239 9.999737e-05 -0.027220814 0.09862752 0.15712354 0.2457091 -0.001178652
0.09980762 -0.8316491 -5.8317135e-05 -0.10235066 0.0647686 0.34418106 0.012333048 -0.17835957
-0.33555785 -0.0052642724 -0.20700952 0.11560052 0.00023124546 -1.4327782e-06 -0.17831773 0.09056905
-0.00031321426 -0.07298273 0.4132774 0.059838127 3.1112907e-17 -0.0063056247 -5.438996e-19 -0.097848766
-0.04174588 -0.0032234066 -2.7906853e-19 -0.20489515 0.21185528 -0.08926216 0.15707855 0.07414381
5.5877e-10 0.122127615 -1.6527064e-27 -0.06014285 0.057631407 1.2374565e-09 -0.039064568 0.0008170263
0.5263202 1.868818e-06 -9.6566654e-20 0.0041242167 -0.46638852 0.0764708 0.010622493 0.00013021541
0.5078199 0.06243852 0.13246173 -0.13662076 0.06598942 0.41587725 0.10378852 -5.7072665e-22
-0.001527056 -0.058915813 -2.218786e-06 0.033573836 0.110676646 -0.38604775 -0.15115824 0.062839426
0.020981207 -0.12543863 -0.0058124284 -0.035769578 -0.07298076 -0.36454216 0.034853958 -0.12774964
-0.08229716 -0.08008934 0.15982646 -0.02984093 -0.0005124752 4.6464793e-06 -0.06475515 -0.19490407
00000000: c13a 51b3 06c4 edbd 3a3e 0abe 60ef e3bd
00000010: e15b 3822 aebc ebbd 2878 fd9e 3fcc 30bd
00000020: 1ed6 d637 d440 67be d7b2 8b9e ac9c f1ba
00000030: c56b aabe 1fac 1fbe 9f09 ea3c 6fb7 ffbd
00000040: e285 382f e177 243f b5c2 4d12 8265 32be
00000050: 4066 7b3d 56b7 dab0 8532 cf3d 9ccb 183a
00000060: be15 90be cf84 a6b4 0c50 2a1e 6a4f 0533
00000070: 0fdd 22be 8a66 09bc 3945 ebbd 7fa8 2c33
00000080: 6509 edbd e96f 413d 850f cb3d 0b86 edbe
00000090: 74bf 11bd dc73 fc3c 7636 0dbe 649e 8d9a
000000a0: e796 1631 d401 28be 8f1f 7cb6 f8b1 523c
000000b0: 20d4 42be cf88 0a3e 11ca ee3c 9ac9 5cbd
000000c0: b80f 333e 4ed4 e8bd 93e9 5eb3 2e65 01be
000000d0: 2222 9fbd 15b8 27be ac4b 39bb c33b bfbd
000000e0: d7d2 38bd 8c6c 89be 55aa 52bc 26d3 0b3e
000000f0: 9da3 e7b5 d39c c2b4 b2ac 10be 5373 953e
00000100: 5092 053a 36b2 1b3e 6baf 573d bd09 89be
00000110: b54d f2a3 7b03 8d3d bb3b 5520 da9e 0d3d
00000120: c6b8 06bd 6ac6 f7be b10b 7d1f 260d 11bd
00000130: 15b3 883e 4eaa 4cbe 8a1e a4bb c403 ef3d
00000140: 88ee 062f 941f 703e 82e7 1294 f82c d0be
00000150: 6374 0e3d 9828 3c31 8c1a ab3c 7495 e839
00000160: 0655 88be 7580 c437 93d0 af1e b29d a8ba
00000170: 2440 1cbe c550 20bb 9f06 213f bf38 f337
00000180: c20c 93be 3c9a 0dbe a3d5 11bf 1390 cc3d
00000190: eb18 9e3d 35f1 0dbe 4107 ae3e 6360 c819
000001a0: f5fa 8bb9 f493 49bd 86a0 97b7 45bf bb3d
000001b0: 06d8 eabd 0e30 f03d df4d d1bd ebac 563d
000001c0: b3d0 923e 0cf5 033e 99de 563b 5ed7 23be
000001d0: 8a23 383e 0861 173e b68d 27bd f87c 1f3d
000001e0: 6a84 d93d 5721 b53d 45ec bb3c feeb 19bd
000001f0: 07b3 2639 e8de 1bb6 075d 313f 5d57 b8bb
00000200: ca8b d239 fa48 9e3d 9da6 7c3d 6c5c 13bd
00000210: 3814 5fa8 853e 223d a9ac 8da1 1295 3b3f
00000220: 2879 773c a7df d03d 11bd d4a0 0f8a c53d
00000230: 999c 323e 3cbb 20be 52c9 acbd 6783 183c
00000240: 4b63 9fb4 f248 82be bbab b212 cf74 253f
00000250: 560c efbe f859 fb30 516f 323d be22 64b9
00000260: 8b57 00bd a591 7e36 6a2a d1a1 303f b439
00000270: ae3c c93d 3056 883d c908 b5be 8b89 93ba
00000280: 846f 37be 672c 563b 4ff8 4a3d 7c2e 09bd
00000290: 3a8e 1f3d 0f88 19bc 259f 0f3d 1f80 969c
000002a0: 5d0f cb3a 2b83 8c3c aeb5 d138 2ffe debc
000002b0: 3afd c93d fee4 203e 2b9b 7b3e 007d 9aba
000002c0: f067 cc3d f5e6 54bf 8c99 74b8 399d d1bd
000002d0: 66a5 843d 8038 b03e 8d10 4a3c e4a3 36be
000002e0: 3dce abbe eb7f acbb 4efa 53be f7bf ec3d
000002f0: 7b7a 7239 e24d c0b5 ec98 36be 447c b93d
00000300: e836 a4b9 f877 95bd 1899 d33e d318 753d
00000310: a37b 0f24 6a9f cebb e487 20a1 ef64 c8bd
00000320: bafd 2abd ca3f 53bb a5bb a4a0 09d0 51be
00000330: 97f0 583e 14cf b6bd 33d9 203e b6d8 973d
00000340: f197 1930 0b1e fa3d def0 0293 5958 76bd
00000350: e90e 6c3d 2113 aa30 2b02 20bd b52d 563a
00000360: ecbc 063f 19d4 fa35 f602 e49f 7024 873b
00000370: 7aca eebe b99c 9c3d f709 2e3c 6f8a 0839
00000380: 7c00 023f 89bf 7f3d 0ca4 073e 50e6 0bbe
00000390: 7625 873d dded d43e 138f d43d d67d 2c9c
000003a0: 7f27 c8ba b551 71bd 74e6 14b6 b884 093d
000003b0: 70aa e23d 0da8 c5be 3ac9 1abe f5b1 803d
000003c0: c8e0 ab3c fc72 00be 2f76 bebb 1f83 12bd
000003d0: f076 95bd 45a5 babe 06c3 0e3d cdd0 02be
000003e0: 6a8b a8bd e105 a4bd 8ca9 233e f774 f4bc
000003f0: a157 06ba f4e8 9b36 599e 84bd ef94 47be

layers.1.fc_neigh.weight f4 [23, 64]
-3.8863575e-08 -0.1177889 -0.18911657 -0.10856051 2.0925475e-18 -0.11476286 -3.0304204e-20 -0.059386346
2.573046e-05 -0.26185495 -1.7613779e-20 -0.0012102335 -0.34816882 -0.15331015 0.0024343645 -0.07991111
1.6165913e-10 0.7675212 1.4142991e-27 -0.15787488 0.083461955 -1.4667559e-09 0.11166017 0.00053130277
-0.31316686 -2.2461e-07 3.831116e-21 2.9372211e-08 -0.19496971 -0.013463233 -0.11565946 5.5771164e-08
-0.12048784 0.029796338 0.13463773 -0.55027634 -0.018935211 0.049850427 -0.1042633 -5.7763406e-23
5.9059317e-08 -0.21880436 1.4152379e-05 0.0583945 -0.22589353 0.13331607 0.021336954 -0.040287267
0.2265347 -0.120005585 -5.1902404e-08 -0.14761493 -0.090859786 -0.19123048 -0.0013955076 -0.07782055
-0.053894244 -0.29460618 -0.02953349 0.11645519 -2.4249507e-06 -3.1891256e-07 -0.15851451 0.31375954
0.00050500006 0.98712784 0.30736324 -0.5383717 -3.397852e-17 -0.32526377 1.7263511e-19 -0.07601429
-0.033252876 -1.0688082 4.8431903e-20 -0.15248568 0.27979535 -0.3717739 0.083630115 0.13474509
1.4229136e-10 0.29263073 -6.4965584e-27 -0.770622 0.03856507 2.7150624e-09 0.26298323 0.0004142951
-0.6214787 2.3321496e-05 1.5999449e-20 -0.0013334291 -0.2229485 0.108878076 1.0884062 3.0945866e-05
-0.6540395 0.16846906 -1.1991541 0.10191267 0.3918697 -0.50475854 0.12118377 2.1335672e-23
-0.00031244988 -0.15633816 -2.6328391e-05 -0.28350866 0.06922232 -0.02511713 -0.15039775 0.15092257
0.74118555 0.26228228 0.0041704914 -0.3276346 0.3472773 0.13919036 -0.04249854 -0.011654416
0.10267201 0.16325666 -0.010291538 0.07485419 0.000118264026 -2.0034145e-06 0.9197133 -0.28999627
0.00044100886 0.24062379 0.07545995 -0.11722726 -1.6071857e-14 -0.03934464 -8.2886367e-19 1.5659225
0.015595315 0.595025 -2.9533194e-19 0.07715242 0.31568307 -0.23723027 0.2532938 -0.0043566944
-6.2057256e-07 -0.5968442 1.0157825e-27 1.1104534 -1.0369887 1.7653337e-09 -0.08781338 -0.00021006318
-0.24067369 4.40122e-06 -9.731581e-19 0.0004556155 -0.14506704 -0.09633884 -0.49393734 -0.0012327835
-0.20969282 -0.06838771 -0.13299763 0.12394249 0.21219644 0.30642515 0.22630489 -1.0033187e-21
0.0015806505 0.24115454 9.774093e-05 0.26652294 0.6067976 0.44058654 0.39915475 0.1073515
0.054396782 -1.7541696 -4.294633e-05 -0.0993412 0.25770715 0.5890136 0.012799657 -0.1618544
-0.31374407 0.3790241 -0.27100673 0.10303017 0.00023669175 -1.9016182e-06 -0.37652504 0.14681867
-0.0002992492 -0.3626926 0.47758034 0.5440667 2.0234477e-17 0.17141558 -6.7577906e-19 -0.18220943
-0.04192148 -0.15626666 -2.9710454e-19 -0.18593635 0.7282551 0.049541302 0.18213165 0.26767313
2.4358346e-09 0.38696173 1.5337492e-27 -0.07891368 -0.054117177 1.1711465e-09 0.28946105 0.0008761748
1.327894 1.6328389e-06 -2.617185e-19 0.0037734243 -0.8770782 0.04628432 -0.12625389 0.000101827376
0.6492952 0.101992786 0.36697417 -0.73755455 0.15101369 0.5574394 0.28239945 -5.9170076e-22
-0.0014315998 0.06588293 -1.4327585e-06 0.11366342 0.14445545 -0.78714037 -0.34001222 0.1763368
0.09557679 -0.26223105 -0.0060958876 -0.038916398 -0.32425663 -0.7629281 0.03388229 -0.058987934
-0.00739202 -0.012740599 0.11638512 -0.05851022 -0.00036003962 4.36537e-06 -0.28393564 0.17080876
00000000: f4ea 26b3 4f3b f1bd c6a7 41be f954 debd
00000010: 1b67 1a22 ca08 ebbd 891b 0f9f 193f 73bd
00000020: bed7 d737 da11 86be 815b a69e b3a0 9eba
00000030: 2f43 b2be 56fd 1cbe dc89 1f3b 70a8 a3bd
00000040: 00bf 312f 457c 443f ca1a e012 f4a9 21be
00000050: 1aee aa3d e396 c9b0 16ae e43d 2047 0b3a
00000060: 6857 a0be 542c 71b4 48bc 901d 2d4e fc32
00000070: 24a6 47be e494 5cbc dede ecbd 0b89 6f33
00000080: 54c2 f6bd 7317 f43c 79de 093e e9de 0cbf
00000090: 041e 9bbc f62f 4c3d ff87 d5bd d1a9 8b9a
000000a0: 68a8 7d33 400e 60be 0170 6d37 122f 6f3d
000000b0: a250 67be 0284 083e d6ca ae3c 4304 25bd
000000c0: b6f8 673e 7dc5 f5bd 4ceb 5eb3 5e28 17be
000000d0: b214 babd ecd1 43be 77e9 b6ba 6160 9fbd
000000e0: 36c0 5cbd 9fd6 96be 38f0 f1bc 0f80 ee3d
000000f0: 56bc 22b6 0237 abb4 a151 22be 17a5 a03e
00000100: fb61 043a 69b4 7c3f b75e 9d3e bad2 09bf
00000110: c2b2 1ca4 f988 a6be c3cf 4b20 61ad 9bbd
00000120: 2b34 08bd b5ce 88bf 94b6 641f 3525 1cbe
00000130: 5641 8f3e 2659 bebe 4446 ab3d 9efa 093e
00000140: 7573 1c2f b2d3 953e 77ad 0094 7c47 45bf
00000150: 68f6 1d3d e293 3a31 bda5 863e bf35 d939
00000160: 3a19 1fbf 88a2 c337 4b1c 971e 75c6 aeba
00000170: 9d4c 64be 78fb de3d e550 8b3f dfcb 0138
00000180: 226f 27bf 2783 2c3e e27d 99bf 97b7 d03d
00000190: 25a3 c83e db37 01bf 322f f83d 9158 ce19
000001a0: 50d0 a3b9 1c17 20be cadb dcb7 0c28 91be
000001b0: 6fc4 8d3d 70c2 cdbc de01 1abe 728b 1a3e
000001c0: 56be 3d3f dd49 863e 9ea8 883b b9bf a7be
000001d0: 55ce b13e eb87 0e3e f312 2ebd 2af2 3ebc
000001e0: b445 d23d c12c 273e d79d 28bc 274d 993d
000001f0: 8404 f838 6672 06b6 5572 6b3f 647a 94be
00000200: 3537 e739 1566 763e bf8a 9a3d d814 f0bd
00000210: 2ec3 90a8 d827 21bd 2ba3 74a1 2670 c83f
00000220: 7e83 7f3c 8f53 183f 4d55 aea0 1702 9e3d
00000230: 36a1 a13e 7eec 72be baaf 813e 9ac2 8ebb
00000240: 6c95 26b5 c8ca 18bf 09f5 a012 5623 8e3f
00000250: 0cbc 84bf 28a0 f230 80d7 b3bd 6844 5cb9
00000260: 2a73 76be 31ae 9336 e09c 8fa1 addf ee39
00000270: 748c 14be 4c4d c5bd 5be5 fcbe 5a95 a1ba
00000280: b7b9 56be db0e 8cbd 8830 08be 8fd5 fd3d
00000290: 064a 593e c2e3 9c3e 78bc 673e 039e 979c
000002a0: d42d cf3a 37f1 763e 43fa cc38 b275 883e
000002b0: 1657 1b3f 8f94 e13e 035e cc3e 1adb db3d
000002c0: 29cf 5e3d a188 e0bf 4521 34b8 6673 cbbd
000002d0: 31f2 833e 98c9 163f a7b5 513c 29bd 25be
000002e0: 10a3 a0be 720f c23e 65c1 8abe 7b01 d33d
000002f0: 7530 7839 1b3b ffb5 e4c7 c0be a257 163e
00000300: 8ce4 9cb9 d8b2 b9be 6985 f43e f547 0b3f
00000310: 4fa1 ba23 9187 2f3e 6c74 47a1 1c95 3abe
00000320: dcb5 2bbd 5e04 20be 2b61 afa0 1966 3ebe
00000330: ed6e 3a3f d2eb 4a3d b880 3a3e 740c 893e
00000340: a863 2731 d91f c63e 4208 f312 7f9d a1bd
00000350: f9a9 5dbd 0ef6 a030 3d34 943e 18af 653a
00000360: 6ef8 a93f eb27 db35 c87d 9aa0 8e4b 773b
00000370: 3288 60bf a194 3d3d b348 01be 288c d538
00000380: 3638 263f 98e1 d03d 0ae4 bb3e 60d0 3cbf
00000390: 55a3 1a3e 59b4 0e3f a996 903e a1d4 329c
000003a0: 85a4 bbba a1ed 863d 354d c0b5 5ec8 e83d
000003b0: 21ec 133e 0882 49bf 1516 aebe a291 343e
000003c0: c4bd c33d 2643 86be 03c0 c7bb cd66 1fbd
000003d0: f704 a6be 424f 43bf 28c8 0a3d 559d 71bd
000003e0: c238 f2bb f2bd 50bc 525b ee3d 6aa8 6fbd
000003f0: b3c3 bcb9 3e7a 9236 0360 91be 7ee8 2e3e
